mini_chess_dqn.pt (torch, 234601 bytes, 6 tensors)

net.1.weight f4 [128, 64]
00000000: ff31 31bd 1fce 25be 7aa2 953e a7be 48bf
00000010: 5166 ef3d 0eb3 1b3f 6cd5 c6be b7b0 d0bf
00000020: 3568 4fbf e327 c83f d901 8abf 5d22 803f
00000030: 7013 33bf 6a1d 0f40 0000 aebf 74eb a63f
00000040: cc5d 263f 669e 1b40 10d0 703f 1429 ccbf
00000050: 8d7b 933e d090 22bd 971f 83bf 69ac 1e3e
00000060: b0ae e4be c03b b23f 1b7a e13f 399e 22c0
00000070: 154d 9cbe cbb9 b0bf 8a83 5dbf c60c 8fbf
00000080: 9fe0 8cbf 487e 29c0 946d 2fc0 6b7f 6b3f
00000090: 96e9 6f3f f259 11c0 fe8a 3d40 c962 a340
000000a0: 8d57 33bf f818 27bf 837c 483f c450 8040
000000b0: bdf2 38c0 0ac8 56c0 a882 7e40 c170 43c0
000000c0: 10ea e43e 1903 f53e e0aa ae3e e4ad f63e
000000d0: a0af 043f d4c0 0c3f 207e c93e 8c75 113f
000000e0: 5891 f33e c2f9 e23e 8aeb be3e a921 113f
000000f0: 04d7 0d3f ebd5 a43e 7d87 a93e 1e76 e33e
00000100: c8ec ffbd 0054 f6b9 f065 00bc 00f4 923b
00000110: 008a b03b a48b 21bd 88d5 70bd e026 29bd
00000120: a0c6 65bd 8062 ab3a 4087 8f3d f683 abbd
00000130: 04a8 343d 04cb c5bd 9061 03bd 8291 dd3d
00000140: 6404 953d 646f 2f3d 0025 213d 945c 523d
00000150: ee34 83bd 4074 81bd 4049 7a3c 9653 ca3d
00000160: f861 80bc b89d c13d 8448 1a3d ec70 563d
00000170: 7c7d 11bd 228e d7bd 0c91 d93d d805 80bc
00000180: b6df d63d 960f a4bd 8090 9bbc 2494 cc3d
00000190: a42c 943d 3011 793c 58d5 493d 1ad3 b9bd
000001a0: 40b5 1b3b d8d5 c73d 940c 45bd 783d bebc
000001b0: 6261 ebbd 80e4 5cbd 5ee4 c43d 7c05 2d3d
000001c0: c0cf 92bb b05c cdbd 42d5 ccbd 5e49 bebd
000001d0: 68ce a6bc ac2d fd3d 9076 45bc 608b ef3c
000001e0: 9026 393d 80cc fabb fcfe a9bd f045 b2bd
000001f0: 70f5 68bc 0cae 9cbd 785f c43c e8ec 73bd
00000200: 3054 513e 96d9 8b38 9877 243f a539 1cbf
00000210: d604 2abe 9992 8e3f 94a2 17bf bab1 f1be
00000220: a1af 4cbf 4d98 6abf c7de cbbf 3ef3 3abf
00000230: de4c 2640 a345 b6bd 00f2 88bc b6b1 803f
00000240: af1b 0bbf e635 653f 48c3 8c3c 66a1 d6bd
00000250: bb91 1d3d 36c7 06be 4188 863f e092 003f
00000260: b15e 4f3f d96f 193f 6dca a23f fb03 f93e
00000270: 12a8 1b40 76f3 0e3e 9165 c4bd 22f6 ac3f
00000280: aae9 1dc0 07a3 a73f 32bb 8f3f 6d0d 0a40
00000290: 92a2 edbf 6896 bfbf e778 8d3e 2b02 f13f
000002a0: 474e cabf 8c35 9b3f e031 a7c0 baa5 5f40
000002b0: 1435 b73f 36d1 0240 4ee3 753f 1749 8f3f
000002c0: 23ba 283f eda4 193f ef9e 2a3f 32f7 183f
000002d0: d71f 3a3f e20a 173f 1fc7 323f e83b 0f3f
000002e0: e576 213f ab9a 2d3f 82b6 0c3f 5f7d 193f
000002f0: 6b23 203f 4fc4 023f a52c 373f 0151 2a3f
00000300: a4cc 103f b079 363f adeb 383f 02f4 593d
00000310: 9ec4 c8bf 81b9 edbf 8105 b63e 6cc1 c13e
00000320: b8dd 10bf d33e b7be 8c1a f73e 6ba1 22bf
00000330: 45de f23f 16ba 29be 0530 133f 54f8 de3e
00000340: e344 a7bf 4a56 d13f 16bd aabf 4fc8 4e3e
00000350: 46c8 2b3f b085 07c0 f73a 613e 453f 333f
00000360: e4ce 983f d09d aa3f 8367 083e 4f75 a23f
00000370: 6c96 94bb 80cf 073f 5fb0 cbbf f95f 7dbf
00000380: 6b2e da3f 5c96 2140 041a 2d3f f441 b6bf
00000390: 40a9 f23e 031b 6340 fa85 1340 0327 49c0
000003a0: f03d 26bf 7e13 1dbf 1d4a 03c0 3560 85bf
000003b0: ed5f 22c0 cb66 08c0 ce20 1dbf e18d e53d
000003c0: 79b5 2b3f 43b4 273f 870b 0f3f 49d2 213f
000003d0: 3f21 0b3f 0fbf 123f 0112 353f 2b10 113f
000003e0: e3cd 2c3f 7177 133f 1545 fb3e a70a 103f
000003f0: f5b2 373f e7f2 f13e 7f59 f53e ed56 223f
-0.04326057 -0.1619191 0.29225522 -0.7841591 0.11689437 0.6082009 -0.38834703 -1.6303929
-0.8101838 1.5637172 -1.0781814 1.0010487 -0.69951534 2.2361703 -1.359375 1.3040605
0.6498687 2.4315429 0.9406748 -1.5950036 0.288052 -0.039688885 -1.0244015 0.15495457
-0.44664526 1.3924484 1.7615389 -2.5409071 -0.3052756 -1.38067 -0.8652884 -1.1175773
-1.1006049 -2.6483326 -2.741063 0.919913 0.937158 -2.2711148 2.9616084 5.1058087
-0.70055467 -0.65272474 0.7831499 4.009859 -2.8898156 -3.3559594 3.9767246 -3.053757
0.44709826 0.47853926 0.34114742 0.48179543 0.5183048 0.5498173 0.39354038 0.5681999
0.47571826 0.44331175 0.37289077 0.56691986 0.5540621 0.32194456 0.33111182 0.44426054
-0.12496334 -0.0004698336 -0.007836804 0.0044846535 0.0053875446 -0.039439812 -0.05879739 -0.04129684
-0.056097627 0.001307562 0.07008219 -0.08374779 0.044105545 -0.09657863 -0.032075465 0.10818769
0.07276228 0.04283084 0.039341927 0.05135782 -0.0640658 -0.06321001 0.015276253 0.09879224
-0.015671715 0.094539106 0.037666813 0.052353784 -0.03552006 -0.105251566 0.106233686 -0.015627787
0.10491888 -0.08010785 -0.018989801 0.09989193 0.07235077 0.015201852 0.049275726 -0.090734676
0.0023759156 0.09757584 -0.0481077 -0.02322267 -0.11493184 -0.053928852 0.0961387 0.04224156
-0.004480332 -0.10027444 -0.10001613 -0.092913374 -0.020362094 0.12362227 -0.012052193 0.029241264
0.04520279 -0.007653773 -0.083005875 -0.08704746 -0.014218673 -0.07650384 0.023971304 -0.059552103
0.20442271 6.668565e-05 0.64244986 -0.6102546 -0.16603407 1.1138488 -0.5923245 -0.47205907
-0.7995549 -0.9163864 -1.5927361 -0.7302741 2.5984416 -0.08900001 -0.016716957 1.0054233
-0.54339117 0.8953537 0.017182961 -0.10480003 0.038469058 -0.1316193 1.0510331 0.50224113
0.8100386 0.5993629 1.2718025 0.4863585 2.4321332 0.1396006 -0.09589685 1.3512614
-2.4673867 1.3096627 1.1229002 2.1570694 -1.8565238 -1.4967775 0.27631304 1.8828787
-1.5805138 1.2125716 -5.2248383 3.4944901 1.4313073 2.0440192 0.96049964 1.119418
0.6590902 0.6001728 0.66648763 0.5975219 0.72704834 0.5900098 0.69835085 0.55950785
0.63072044 0.6781413 0.54965985 0.59956926 0.62554044 0.51080793 0.715525 0.6652985
0.56562257 0.7127943 0.7223461 0.05321122 -1.5685003 -1.8572236 0.35551074 0.37842882
-0.56588316 -0.3579012 0.4826244 -0.63527554 1.8974081 -0.16574892 0.57495147 0.43548834
-1.3067898 1.6354458 -1.3338954 0.20193599 0.6710247 -2.1175346 0.2199515 0.70018417
1.1938138 1.332941 0.13320737 1.269205 -0.0045345332 0.53050995 -1.5913199 -0.9897457
1.7045416 2.5248022 0.6761782 -1.4238877 0.47394753 3.5485237 2.3050523 -3.143006
-0.6493826 -0.6135787 -2.0513985 -1.0419985 -2.5371048 -2.131274 -0.6137818 0.11208702
0.6707378 0.6550943 0.55876964 0.63211495 0.54347605 0.5732278 0.70730597 0.56665295
0.6750166 0.5760413 0.49076143 0.56266254 0.7175744 0.47255632 0.47919843 0.6341389

net.1.bias f4 [128]
00000000: 1561 113f 120e 8cbd 0384 073f 9597 153f
00000010: 966e 093f c58a 0a3f 0833 94bd e2a3 883d
00000020: 5490 bf3e b5f3 1c3f c9a5 833e e834 e3bd
00000030: 68ec ce3e 10c6 e63c 8d92 fd3e 5713 9a3d
00000040: 6466 b8bc 14a0 943d 8cdb d9bd 840f 913e
00000050: 896b f13e 074f cf3e 970b 7f3e 24f6 883e
00000060: f0a7 71bd eb95 eb3e c824 a2bd 96de 083f
00000070: d410 013f 8db3 1b3f 6544 cb3e ad0e 113f
00000080: da33 213f ee32 a73d 9067 5ebc 1024 303f
00000090: 69a8 243f 845f eb3e c2ac 063f 78a5 ae3e
000000a0: 491f a13e 8239 debd a65b 323f 804c ff3e
000000b0: fd1b d03e 3ca9 e73e 527f 083f 95dd 983e
000000c0: 0ccf 033f 46e5 0c3f 00cd 3e3c bd89 a43e
000000d0: baa2 283f 813b 9cbc 3f46 023f 1c60 7fbd
000000e0: 5c94 463d 4408 043d 8477 063f 0ef7 c03e
000000f0: 0aa8 953d 4dec 853e 6579 e3ba 1bcd 203f
00000100: ddec 243d 8adf 7a3e 8061 cf3e c061 163f
00000110: 32e0 b63e 2c0f 593e de19 9b3e ec9c a23e
00000120: e8ba 1d3f 47b7 ed3e ef59 c03e 780f fb3e
00000130: 3e40 e5bd 0183 d93e 7292 0e3f b744 163e
00000140: 2512 bc3e e6b5 cfbd 4116 b63e 3067 ff3e
00000150: ec64 3a3f 8580 013f 9023 cebc 2aa6 d8bc
00000160: bbd7 423d 0264 c53e b1c1 0d3f f007 b53e
00000170: 6133 0a3f caab d23e 5249 703e 52bf 003f
00000180: 8415 ee3e 60d8 8fbb fc5d e13e 0170 013e
00000190: 876f 893e b9a5 233f 7991 053f 259e e63e
000001a0: e0ab cb3c 768e 0dbe 42b9 8c3e 6403 233f
000001b0: e48b b43e 0244 2e3e d5d8 213f 1fdb 123f
000001c0: 0903 d73e e1e6 1d3b 41c3 d93e 88ba a5bd
000001d0: bae4 ccbd ae2e 053f d87b 343f c682 bd3e
000001e0: 3af3 853e 3803 033d 20f9 32bd 0d83 d5bc
000001f0: de60 0e3f b6aa 9c3e e8d6 d03e 4824 e43e
0.5678876 -0.06838621 0.5293581 0.5843442 0.53684366 0.54117996 -0.07236296 0.06671883
0.374148 0.6130937 0.25712422 -0.110940754 0.4041474 0.028170615 0.49525872 0.0752322
-0.022509761 0.07257095 -0.10637578 0.2833215 0.47152355 0.4048998 0.24906765 0.2675029
-0.05899805 0.46012816 -0.07917172 0.5346464 0.504163 0.6082085 0.39700618 0.5666302
0.62969744 0.08164011 -0.013574496 0.68805027 0.64319474 0.4597131 0.5260736 0.34110618
0.3146918 -0.108508125 0.69671094 0.49863052 0.40646353 0.45246303 0.53319275 0.29856554
0.51487803 0.55037344 0.0116455555 0.32136336 0.658733 -0.019071342 0.5088844 -0.062347516
0.04848133 0.032234445 0.52526116 0.37688488 0.073074415 0.26156846 -0.0017354904 0.62812966
0.040264953 0.24499336 0.40504074 0.58742905 0.35717922 0.21197194 0.30293173 0.31760347
0.6161332 0.46428892 0.37568614 0.4903524 -0.11193894 0.4248276 0.5569221 0.1467465
0.36732593 -0.10142116 0.35563853 0.49883413 0.72810245 0.5058673 -0.025163442 -0.02644642
0.047569018 0.38552862 0.55373675 0.35357618 0.5398465 0.4114669 0.2346547 0.5029193
0.4650079 -0.0043898076 0.44017017 0.12640382 0.268429 0.6392475 0.521751 0.4504253
0.02486223 -0.13823876 0.2748509 0.6367705 0.35262978 0.1701813 0.63221484 0.573656
0.41994503 0.0024093913 0.4253178 -0.08092219 -0.10004564 0.5202435 0.7050147 0.37013835
0.2616213 0.03198549 -0.043694615 -0.026063466 0.5561656 0.30598992 0.4078896 0.4455893

net.3.weight f4 [128, 128]
00000000: ec38 d43e 1188 41bd cc18 a73f 1665 313f
00000010: 8abc fe3c 1194 d13f e4c1 463d 0cca 6cbd
00000020: f14f 413f 4a6e 4d3f 1cf3 7840 a4ab 783d
00000030: 71b3 0840 5f47 55bd db46 7ebe 7898 8f3d
00000040: b2cf 9c3d 8fcf 223d 180c c93b 3837 cd3f
00000050: feab 973f 94b8 663e 5be9 ad3f 6155 7c3f
00000060: 925b 5dbd 2464 f53d 9d37 9e3d ca32 ac3f
00000070: 8a2a fcbf dd3b ed3f 8e89 ccbe 74c3 8e3f
00000080: 0e00 d1bf 0052 83bc 31be a73d e196 543f
00000090: 2094 c3be 7137 06c0 273f 8b3f f9c5 b83f
000000a0: 1053 c93f a5e2 903c dde8 393f 95af 5b3e
000000b0: d6aa fd3f 1c18 43bd e71e 0e40 6a91 1940
000000c0: 7724 973f d48f 983e 6f9a 77bd b0c0 2640
000000d0: 1c98 e23c fc94 7e3d b014 8fbf b6b8 933c
000000e0: 449a 3f3d 4333 603d 4b83 bd3f 79ad 513f
000000f0: 2a66 013d edd7 a5bf b7f6 d83d 0cd2 d73f
00000100: 2cfc 9b3f 7482 3f40 a6b2 1bbe d97e 983e
00000110: d532 8e3f f902 243e d32f 9b3f 25c1 f53f
00000120: 5c19 6f3f 745b f4be 5667 1a40 6b7d bb3e
00000130: bebc 803b 23e6 1a3f c771 6e3f 2878 6a3f
00000140: 386b d93f e91f aa3d 3ca8 57bc 3b1d d13f
00000150: 2f69 d13f fc37 2b3e 53a4 6a3c 562d 5e3d
00000160: 4fd3 bfbc f78c fc3f c702 ad3f 936e 0240
00000170: 8056 07c0 b57c b63e 7286 df3f fd91 d83f
00000180: f41c 9a3f cc98 03bd 615e 97bf d8a4 803f
00000190: 9fcf 933e e2cb d03f 0515 733e 10c5 3e3f
000001a0: b62f 8cbd cbf4 59bd 5f71 a9be bf03 e53d
000001b0: 6e3a 0f3f 1c8d 133f 4031 6a3f b0a8 f73f
000001c0: a573 7e3f a076 733d 3027 683f c073 a93d
000001d0: 88a0 e83c 1e9e 0bbc 847a a43f ad98 893f
000001e0: 2de7 62bd fda7 2b3d 535c 91bd 09fe 693d
000001f0: 1573 48bf e2ea 2940 762f 3e3f 6365 31be
00000200: a661 ae3c 6e0d a4bd 1259 723d 6ad8 c7bc
00000210: 0dd1 85bd 64ad 043d f37d 4f3d 691d 87bd
00000220: e82c 8d3c d73a acbd 5750 3abe fd35 123b
00000230: 6190 e5bd a07d b4bd 0ccb 51bd d12f 0bba
00000240: fd96 333d 8a54 a1bd 551e 9dbc 8be9 353c
00000250: 161b a9bd 7efc 77bd 48d9 bebd 530e fc3b
00000260: 3065 733c 2015 28bd c505 a83c d857 0ebd
00000270: aeb9 a03d 4f5b 2fbe beff 513d 37c6 43bd
00000280: 9902 9c3d 7e60 b3bd bad9 86bc 3945 0a3d
00000290: 55ba 88bd e8a0 d5bd 195e c2bd 6061 9abb
000002a0: e271 9dbd 313c 9bbd b0cf 7fbd 0f03 10bd
000002b0: 8371 87bc b6e5 40bd 6684 38be 47da 4d3c
000002c0: a4f5 f6bd 906a 2e3d 7c15 323d cb6e b9bd
000002d0: 3a0b 49bd c2ce 1f3d dcfa 08bc 17a2 ab3d
000002e0: 0f76 87bd ba10 87bd 9333 1fbe 7008 d43d
000002f0: 5337 04bd dc04 9b3d cd2b 0cbd fa94 323d
00000300: c75e 4fbd dda9 7d3c a794 723d c30d 0ebe
00000310: 0b70 c0bc 5c9f fe3c d24e 3a3c 7999 7ebd
00000320: 4bbb b73c 816b c2bc f4dd bbbc f1b5 3c3c
00000330: c3fc 8c3b 49b4 4d3d c07b 373d 27a3 313b
00000340: c869 b8bd d59d 563d 9b16 fb3a 4471 11bc
00000350: 936d 5cbc 66e3 95bd d683 863c 392d 3f3d
00000360: 4daf a0bd aab5 82bc 0146 78bd b337 18bd
00000370: e4cd a6bc 114c e4bc aa2d d2bd 105a ebbd
00000380: fb81 8abc fd52 69bd 7e6c 63bd e0a1 89bd
00000390: 8f2b d1bd 18a7 843c 8f8c 81bd f45c f5bd
000003a0: d00a d5bc f7e7 37bc 42f7 97bd 15b4 4cbd
000003b0: e6f3 91bd 49f7 503c 5b2d 9a3d 351b bc3b
000003c0: 316a debd 581e eb3b 5b0b 87bd 7d24 363d
000003d0: 856b 25bc b048 a1bd a4b5 77bd 5b26 6cbd
000003e0: c89d 113d aac7 923d 0558 99bd 13d9 3f3c
000003f0: 8216 9bbd 43e5 e2bb 3fa9 4c3d a946 353d
0.41449678 -0.047248904 1.3054442 0.6929487 0.031095762 1.6373311 0.048524752 -0.057809874
0.75512606 0.8024641 3.8898382 0.060710564 2.1359522 -0.052070018 -0.24831717 0.07011503
0.07656802 0.039748725 0.006135475 1.6032476 1.1849363 0.22531348 1.358684 0.9856778
-0.054042406 0.11981991 0.07725451 1.3453 -1.9700482 1.8533894 -0.39948696 1.1153398
-1.6328142 -0.016030312 0.08190573 0.8304272 -0.38198948 -2.0971339 1.0878648 1.4435416
1.5728474 0.017686198 0.72620946 0.21453698 1.981776 -0.047630414 2.2206361 2.3995004
1.1808003 0.29797232 -0.060450014 2.6055107 0.027660422 0.0621538 -1.1178188 0.018032413
0.04677798 0.054736387 1.4805692 0.81905323 0.031591572 -1.295652 0.10593932 1.6860976
1.2186332 2.9923372 -0.15204868 0.29784277 1.1109263 0.16016759 1.212397 1.9199568
0.9339807 -0.47726023 2.4125571 0.36619124 0.00392875 0.6050741 0.9314236 0.91589594
1.6985846 0.08306868 -0.013162669 1.6337045 1.6360224 0.16720575 0.0143214045 0.054242454
-0.02341619 1.9730519 1.3516473 2.037999 -2.1146545 0.3564202 1.7462904 1.6919552
1.2040086 -0.03212814 -1.1825677 1.0050306 0.2886934 1.631222 0.23738487 0.74519444
-0.06845038 -0.05321197 -0.33094308 0.11182355 0.5594853 0.5763719 0.914814 1.9348354
0.9939521 0.0594393 0.90684795 0.08274031 0.02839686 -0.008521585 1.2849889 1.0749718
-0.055396248 0.041908253 -0.070976876 0.057127032 -0.783006 2.654961 0.7429117 -0.17323832
0.021286797 -0.08010374 0.059166975 -0.024395186 -0.06534014 0.03239192 0.050657224 -0.065974064
0.017233327 -0.0840966 -0.1819471 0.0022310012 -0.11209179 -0.088130236 -0.05121903 -0.00053095544
0.043845166 -0.07877453 -0.019179503 0.011103044 -0.08257119 -0.06054353 -0.09318787 0.0076921373
0.014855668 -0.04103577 0.020510564 -0.034751743 0.078479156 -0.17124675 0.051269285 -0.047796454
0.07617683 -0.08758639 -0.016461242 0.033757422 -0.06676165 -0.10431081 -0.09490604 -0.004711315
-0.07687737 -0.0757984 -0.062453926 -0.035159167 -0.016533619 -0.04709407 -0.18019256 0.012564248
-0.12058571 0.042582095 0.04347752 -0.09054335 -0.049082972 0.03901554 -0.008360591 0.083805256
-0.06614315 -0.06594987 -0.15547018 0.10353172 -0.032279324 0.07569286 -0.03422146 0.043599106
-0.050627496 0.015482393 0.059223797 -0.13872437 -0.023490926 0.031081848 0.011371331 -0.06215808
0.022428175 -0.023732902 -0.022932984 0.011517988 0.0043025925 0.05022076 0.04479575 0.0027105303
-0.09004551 0.052396614 0.0019156517 -0.008877102 -0.013453859 -0.073187634 0.016420286 0.046673987
-0.07845936 -0.015955765 -0.060613636 -0.037162494 -0.020361848 -0.027868303 -0.10262616 -0.114917874
-0.016907683 -0.05696391 -0.055523388 -0.06720328 -0.10213386 0.016192958 -0.063256375 -0.1198062
-0.026006132 -0.011224738 -0.074202076 -0.049976427 -0.07126598 0.01275427 0.07528182 0.005740548
-0.10860098 0.007175248 -0.06593963 0.04446839 -0.010096435 -0.07875192 -0.06047596 -0.057653766
0.035550863 0.07166989 -0.074874915 0.011709469 -0.075726524 -0.006924303 0.049966093 0.04425684

net.3.bias f4 [128]
00000000: e939 843f a5fb 91bb dee6 933f d5e6 163f
00000010: f53e e83e 6d5f 0d3f a941 d83e d509 593f
00000020: 85ee a43f a687 553f ab3c f83e 5630 183f
00000030: 6f57 8c3f 9e01 633f e139 8fbd 272d ab3c
00000040: cf32 e13e 04c7 6c3d 8c29 443f 6c29 9a3f
00000050: 8767 e9bd a5e5 883f 0db6 973d 4c1b 353e
00000060: 5f94 e83e 5847 b9bd ff3d b93e f9d0 973f
00000070: 3800 093f ec1e 803f 3954 263f 2bd9 023f
00000080: f9ed 363f 12aa ccbd d745 1e3f 31d4 df3b
00000090: 3f91 783f e8dd 503f 3e32 b7bd e9ee e03e
000000a0: 7f00 143f 92b5 08be f156 0b3f 9541 babd
000000b0: 0b58 aa3e e7a9 973f 7d6c cabd 763d 893f
000000c0: e359 88bd 3386 053f ea8c 523f fce7 903f
000000d0: 4243 d73e e044 2e3f 3ab2 923e 2b39 13bd
000000e0: 9a3c d73e 8b93 853f d6c1 4a3f acb0 6f3e
000000f0: 49ad cb3e b484 11bd 99ab 873f 61f5 dc3e
00000100: a14d c33e 6be1 b93e e80d d93b 06f8 9f3e
00000110: e013 4b3e 7ea1 a93e b885 653f d027 ca3e
00000120: 1d81 55bc 70f6 8f3f 2ee6 863e 29d9 123f
00000130: 0acc 323f 877e 173f 443f c3bd 2a06 5c3f
00000140: 9343 fd3e c71f 553f 5a63 b13e a99f 0b3f
00000150: 887d 083f 717c cb3e 8b2f 3e3f 8ead 523f
00000160: 4c67 013f 51a8 093f 12db 1d3f 04c9 713f
00000170: c3aa 883e 3139 ae3e a4bd e63e 018a a23c
00000180: 5599 c0bd dcf1 e63e 36d4 903f 94a9 e33e
00000190: 86fc 223f 88c3 543f c52e 573c 6253 993e
000001a0: 374c 203f ce4f 163f aceb 1d3e 8235 8f3f
000001b0: 4180 473f 1f08 323f a20b 863c 195a 0d3f
000001c0: 04bd 49bd ecd4 9d3e e5c5 623f e72d 3cbd
000001d0: 9059 583f 886a f7bd ffcb 083f 1927 423f
000001e0: 8858 c23e ea01 363f a657 6a3f 5ea7 9dbd
000001f0: 1a97 843e fcf7 423f 6309 a13e f46a 8d3c
1.0330173 -0.004455047 1.155483 0.5894597 0.45360532 0.55223733 0.42237595 0.8478063
1.288529 0.8341011 0.48483786 0.59448755 1.0964183 0.8867434 -0.069934614 0.020895554
0.43984076 0.057806984 0.76625896 1.2043891 -0.113966994 1.0695082 0.0740777 0.17686194
0.45425698 -0.09046811 0.36180112 1.1860648 0.5351596 1.0009437 0.64972264 0.5111262
0.7145687 -0.09993376 0.6182532 0.006830715 0.9709663 0.815886 -0.0894513 0.43932274
0.57813257 -0.13350514 0.5442954 -0.0909454 0.33270296 1.1848725 -0.09883974 1.0721881
-0.066577695 0.52157897 0.8224627 1.1320796 0.420435 0.68073845 0.286516 -0.03594319
0.42038423 1.0435652 0.7920202 0.23407239 0.39780644 -0.035526946 1.0599242 0.4315596
0.38145164 0.36304793 0.006623972 0.31243914 0.198318 0.3313102 0.89657164 0.394835
-0.013031271 1.1247082 0.26347488 0.5736261 0.6984259 0.5917744 -0.09533551 0.85946906
0.49465618 0.83251613 0.34646112 0.545405 0.53316545 0.3974338 0.74291295 0.82296073
0.50548244 0.53772455 0.616624 0.9444735 0.2669278 0.3402801 0.4506656 0.019841196
-0.09404246 0.451064 1.1314762 0.44465315 0.6366657 0.83110857 0.013133709 0.2994643
0.62616295 0.5871552 0.15421933 1.1188204 0.77930075 0.6954364 0.016362969 0.55215603
-0.049252525 0.3082651 0.88583213 -0.045942213 0.8451166 -0.12080866 0.53436273 0.7584091
0.3795817 0.7109667 0.9153999 -0.076979384 0.2589653 0.76159644 0.31452474 0.017262913

net.5.weight f4 [256, 128]
00000000: 8842 57bd 6066 4e3d 8eee 9f3d 2420 b33b
00000010: c4a7 9b3c 74da 923d f447 773d 0a40 a9bd
00000020: e07f a43d 736e d9bc 8d90 19bd 17bd 3c3d
00000030: 7363 6bbd 019b b6bc a329 fbbc b1db 24bd
00000040: 4002 ad3b 370e d1bc 7f85 4d3d 150c 213c
00000050: 9fcb 66bd e653 d7bc 10bc a1bd 5f6f d6bc
00000060: 6ff3 4e3d 0aa0 50bd d02a d93c cdbb 33bd
00000070: 4ddf eabc 9d07 11bd a150 14bd a24f f93b
00000080: 4b64 8bbd f453 a9bd b861 273d e926 b1bc
00000090: 3f14 323d d012 513c 8b81 a3bd ffe7 0fbd
000000a0: a681 a13d bf63 20bc 5386 7f3d d65f 8b3d
000000b0: cac4 30bd fdef 47bd 8523 31bd 6535 9d3d
000000c0: 6337 5dbc 0608 693d 1fae 0ebd 02c4 a3ba
000000d0: 8d0c dbbc 87f3 60bd 80e8 cf3c cd33 233c
000000e0: 22e5 98bd 04b8 69bc 5665 cabb 5529 a1bd
000000f0: 91cf 9a3d 289b 223d 5692 96bc 2bfa 49bc
00000100: bba2 7bbd 9b11 4d3d a62d 163d c211 003c
00000110: 1a46 2b3b 4688 22bd 7061 fabc 9543 8c3d
00000120: 0007 a8bd 2705 853d 6526 aa3d beac 9d3d
00000130: 979e c63c 9f3d 99bc 7171 903b d91a f03c
00000140: a456 443d 6e02 ae3d 441a 9b3d a399 42bd
00000150: 551f db3c 6afa 11bb 9a33 5abd 5a54 aabd
00000160: cd92 9abc 8292 38bd db81 17bd 9b27 123d
00000170: 554a 893d af69 253d 10d1 eb3b 57ef a7bd
00000180: 2a86 0f3d 6f05 553d 04cd 033d b191 89bd
00000190: d68f 7b3d dbd3 22bd 5459 b33d e7ae c13c
000001a0: 9342 cb3a d5fd a8bd d8d4 1b3b 5f1e 55bc
000001b0: e903 ecbc fbb6 813d 1c27 7dbd ab6f 463d
000001c0: c056 b03d f1ef ee3c a11c 653d 72f6 933d
000001d0: 20c5 9cbd 569d aebd 8b2d a6bd 31ea 2dbd
000001e0: aa6f 6cbd e25c b03d 420c 773d 80f2 3cbd
000001f0: 67be 963d e03c b5bc 98c8 79bc b421 08bd
00000200: 1f28 31be 8012 b7bd a1fb 0a3f 27e4 733f
00000210: f8c7 523e 5a5a 8f3e 4c24 6f3e 9d22 363f
00000220: 0866 103f 8e53 2cbe 69d5 483f 40ac 843e
00000230: 2122 003f 90b5 853f ac66 65bd b276 263d
00000240: bc6c 863c 93ef 78bc ea69 5d3f e2c5 823e
00000250: 1494 a43d d0ee a33e af03 283d 0dc8 2b40
00000260: 8784 d83f 9f2b 803d fbdd 693f 9d4a 413f
00000270: e4d7 143d 1c25 9b3e fde0 eb3e e0af 983f
00000280: a01f 1e3f b72d 90bc fdf6 be3e d6d7 17bd
00000290: b700 e5be de1d 723f ad48 2e3c 4e99 353f
000002a0: 3179 993e d9cf 953d a4f2 a33f 1c0e 5bbd
000002b0: 8091 d63f 3c5f 193e 4f75 943b bb08 833f
000002c0: dd3e 87bd 9881 b03f e0b8 8bbe cd1a b53e
000002d0: fe25 983f da19 27bf 91aa 853f aeb7 483b
000002e0: 44e4 833f ebfc 603f 8eb8 263e 9552 d13e
000002f0: 2ee4 c43f 4408 24bd 59a7 2a3f fe28 0040
00000300: 6873 7c3f d957 f53f 7d6a afbd 960a 9dbe
00000310: 53a8 ae3f c7ce d8be a83c 12bf a322 2a3f
00000320: bb0b af3c 85b2 383f bbd3 573e 4c2f 4a3f
00000330: be6d a3be 0afa 303f a138 cfbc e28b 3f3e
00000340: 9d30 e53f f814 cd3b 0dc7 fb3d 24dd f33f
00000350: 9188 ec3e f09f 87be 7b25 7b3f 1f0d 8abe
00000360: 56ff dc3e 19ce b2bc 68d8 233f 594f 333f
00000370: e8ed b73f e05c e0bd 6c18 253f caa8 a03d
00000380: 21f4 223d ee2c 813f 1ff0 3f3f b87a 2d3e
00000390: 1e81 183f 4bd3 113f b7a4 13bc dc75 1bbf
000003a0: cef8 183e ef21 603d 9c73 fb3e f021 123f
000003b0: 926b 053f e504 5dbe 2ab3 2c3d 5e3c 893f
000003c0: c1dc 30bd e099 983e 24c9 4e3f e14c ebbc
000003d0: 6b49 c73e 177f a2b9 e7c6 073f 08f2 0abe
000003e0: fd48 e4be 2c6e b83f db9a 483f 5715 90bc
000003f0: 234d 323f a7b3 60bf e2cd a43f 903b 133d
-0.052553684 0.0503906 0.078091726 0.005466478 0.019000895 0.07170573 0.060371354 -0.082641676
0.08032203 -0.026541924 -0.03749137 0.046078768 -0.05746789 -0.022290708 -0.030659502 -0.040248577
0.0052798092 -0.025519473 0.05017614 0.009829541 -0.056346532 -0.026285123 -0.07897198 -0.026176153
0.050525125 -0.050933875 0.026509672 -0.043880273 -0.028670931 -0.03540765 -0.036209706 0.00760837
-0.06806239 -0.08267966 0.040864676 -0.021625 0.04347634 0.012760833 -0.07983693 -0.035133358
0.078860566 -0.009789406 0.06238396 0.06805389 -0.043156423 -0.048812855 -0.043246765 0.076762
-0.013501975 0.056892417 -0.034834024 -0.0012494328 -0.026739383 -0.054919746 0.02537942 0.009961081
-0.074655786 -0.014265064 -0.006176631 -0.078692116 0.075591214 0.03969875 -0.018380325 -0.012327711
-0.06143449 0.050065618 0.036664627 0.007816734 0.0026134313 -0.03968074 -0.03056404 0.06848828
-0.0820446 0.06495123 0.083081044 0.076989636 0.024245543 -0.018706141 0.0044080545 0.029309677
0.04793419 0.08496557 0.07573369 -0.0475098 0.026748339 -0.0022274503 -0.053271867 -0.0831687
-0.018868828 -0.045061596 -0.036989074 0.035682302 0.06703631 0.04038399 0.007196553 -0.08199947
0.03504006 0.052007135 0.03217794 -0.067172416 0.06141647 -0.039752822 0.08757272 0.02364297
0.0015507512 -0.082515396 0.0023777988 -0.013007729 -0.028810458 0.06333729 -0.061804876 0.04844634
0.08610296 0.029167147 0.055935506 0.0722474 -0.07654786 -0.08526103 -0.081141554 -0.04245967
-0.05772368 0.08611466 0.060314424 -0.046129704 0.07360535 -0.022123754 -0.015245579 -0.033235267
-0.17300461 -0.089390755 0.54290205 0.9527001 0.20584095 0.2799862 0.2335369 0.71146566
0.5640569 -0.16828749 0.7845064 0.25912666 0.50052077 1.0446033 -0.05600612 0.04064054
0.01640927 -0.015193838 0.8648974 0.25541598 0.08036056 0.32018137 0.041019138 2.6840851
1.6915444 0.0625832 0.9135434 0.75504476 0.0363387 0.3030175 0.4607009 1.1928673
0.61767006 -0.017599924 0.37297812 -0.03707107 -0.44727108 0.94576824 0.010637444 0.7093705
0.29975274 0.073150344 1.2808423 -0.053480253 1.6763153 0.14977735 0.004530586 1.0237039
-0.06603787 1.3789549 -0.27289486 0.3537201 1.1886594 -0.6527382 1.0442678 0.003062706
1.0304036 0.8788592 0.1628134 0.40883318 1.5382135 -0.040046945 0.666616 2.002502
0.98613596 1.9167434 -0.08565233 -0.3067214 1.3645118 -0.4234526 -0.57123804 0.664591
0.021367898 0.721474 0.21076863 0.7897842 -0.31919664 0.6913153 -0.025295557 0.18705705
1.7905461 0.006258603 0.12293825 1.9051862 0.46197942 -0.2648921 0.98104066 -0.26963136
0.43163556 -0.02182679 0.64002085 0.7004295 1.4369478 -0.109552145 0.6449039 0.07844694
0.0397836 1.0091836 0.7497577 0.16941345 0.5957202 0.5696303 -0.009011439 -0.60726714
0.14938661 0.05471986 0.4911164 0.57083035 0.52117264 -0.21583898 0.04216305 1.0721548
-0.043179277 0.29804897 0.80775666 -0.028723182 0.389232 -0.00030993737 0.53037876 -0.1356889
-0.44586936 1.4408622 0.7836129 -0.0175883 0.6964895 -0.8777413 1.287533 0.035945475

net.5.bias f4 [256]
00000000: 9d29 363d 075d fc3e 5e17 843e 742b e13e
00000010: 0e95 8d3e c41b c23e 0f16 3ebd 42af a83d
00000020: 57b9 133f 3200 4f3d edd2 16bd b67f 4a3d
00000030: 1548 0c3f 108e 39bc 1ef0 263d 16b3 93bd
00000040: 9426 e03e 33b6 42bd ffab 223f c49c 953d
00000050: 2e4a a63e 1d3d ec3d c07f 5e3e 3c7d cc3a
00000060: 0a7d 87bd ae53 c83e 1cdd de3c 6ff0 773d
00000070: bfc6 4dbd a94c 0f3e d946 04bd 422d 9b3a
00000080: 36eb 4e3c b940 f43e 86e2 3a3d c58f 5f3d
00000090: 314b 51bd 8dbe c53e 1c65 e33e 1489 193f
000000a0: 2cc1 8dbd 47a1 9939 8866 d43e 034d b4bd
000000b0: ff1b 0f3d d638 3b3d fef3 813e 3f2a 873c
000000c0: f216 123e 2778 013f 5771 ea3e e917 abbd
000000d0: e911 9ebd e736 ae3d 6b63 ba3e b6d2 893e
000000e0: 5e79 6cbd bf87 8c3d 0673 893c 5aee 513e
000000f0: 942e 86bd ae2f afbd dbd4 47bd a072 af3e
00000100: 015d cf3e af10 df3e fec7 30bd aa5a 90bd
00000110: ca6d bbbb bcfe 053f d9ea b33e bb91 db3e
00000120: 1c47 e93e edfd e03e 6a3f 2bbd 3548 8c3c
00000130: 9f4e cb3e 6400 d83c dc02 81bd ddc8 7c3d
00000140: 6837 f73e 4c9b ec3e 76ec 113f 7d5d 5ebd
00000150: a27a 073f af49 803c 1e04 a63e 001b 9d3e
00000160: 02b7 bc3e efbb 5e3e b0e6 893e abbd 943d
00000170: 2895 2abd d429 823e 4e8a 18bd daa5 87bd
00000180: 4163 30bd 7f1d ff3e 1795 be3e 042f 023f
00000190: 8b9a 1b3e 72c6 b13e 087d f73c 147a c93e
000001a0: 1142 8f3d 8293 b63e 571b c13e 4616 2c3f
000001b0: 2e35 80bd facf a4bd af70 773e 6dd2 a0bd
000001c0: 5077 76bb 1268 583d 3621 8d3e 5b08 c53e
000001d0: 863e b23e 0084 2e3e fdfc 963e edd0 813d
000001e0: a4b7 b13d 499e 9b3c 8b39 a03e 7032 a23e
000001f0: fe31 a7bc 4aef 8a3d 075b 9e3c cddf d93e
00000200: 7ac2 703e 2ec4 04bd caad 943d c941 a5bd
00000210: 1daf 993e d0fc 423e 4387 30bd 21f6 78bd
00000220: b6f4 98bd 51bb cc3e d7c7 6d3e a79e 063f
00000230: 21da 4a3f 976a c53e daec 843d 6a68 9c3d
00000240: 89fe 4ebc 14e7 e83e 03a9 2abd e709 1b3d
00000250: 6ce6 b63e b239 953e 7cd8 cf3e 543e 563d
00000260: cc9d 013f c61a 873d a2fb a03e da0f 8d3e
00000270: c887 a33f f914 f63e d6fd 983e bd29 3ebc
00000280: dd40 d9bc 07fb 0abd 6f36 c93e eb7b 5d3d
00000290: 765f 94bd 73f0 cb3e b877 683e 7004 cb3e
000002a0: b07b b43e be6a 943e 0ca4 98bb e07f 7d3e
000002b0: 9bdb 6fbd c588 1e3f 2c57 c03e 4a98 003f
000002c0: 7249 4b3d c641 bbbc 4eee 76bd 5464 9e3e
000002d0: cb54 a33d 824e 94bb 83b1 273e 2006 e73e
000002e0: 22ac dd3e 05e4 d93e b236 e33e 9c25 22bd
000002f0: ab12 77bd 1bff 793d 21b9 c73e b6eb 143f
00000300: 2e79 033f 7d06 8b3d 5410 b4bd 63bd 6d3b
00000310: 2e84 d23e 61ad 94bd 8002 2cbd bb6b 9a3c
00000320: e902 db3e 45c5 1b3d cd7e 073d 49d2 44bd
00000330: 63e7 f7bc c259 ad3e 5b82 bb3e c639 d13e
00000340: 710c 693d 4d5b 6e3f 93d3 603c f5be cb3c
00000350: 6bb1 673d 132b 153f 9744 8f3d ce19 e8bc
00000360: c684 013f 4948 ba3e 3cc2 1c3f 7c5f c13b
00000370: c9de 223f a70c 303d 8627 003f f52c 0a3f
00000380: 67ab a53c 6b81 363c 1fb7 623e 53e3 763a
00000390: af2a 3fbc 8cd9 8b3d 3bc8 883e a503 8bbc
000003a0: bff9 4fbd faf4 ad3e 9c93 fa3e 6a8d 0a3f
000003b0: bf73 de3e 54fd 823e fc2f f2bc 503b ea3e
000003c0: 55bb 843d cd72 81bc 59c7 a23c bd73 a83e
000003d0: 7002 92bc 88e0 413c 1b5e af3d e3a6 133f
000003e0: e8e8 82bc 2ba6 31bd df20 653e faf0 d03e
000003f0: 3f58 f03e 40c5 3e3d 4899 163f 86e0 be3c
0.04447328 0.49289724 0.25799078 0.43978465 0.27652782 0.37911808 -0.046407755 0.08236553
0.5770468 0.050537296 -0.03682225 0.0494382 0.5479749 -0.011325374 0.040756337 -0.07211892
0.43779433 -0.04753704 0.63543695 0.07305291 0.3247847 0.11535094 0.2172842 0.0015601288
-0.06615646 0.39126343 0.027205043 0.06053203 -0.050238367 0.13994087 -0.032294128 0.0011839049
0.012629321 0.4770563 0.045626186 0.05458047 -0.0510971 0.3862194 0.44413078 0.5997479
-0.0692161 0.00029302595 0.41484475 -0.08803751 0.03493881 0.0457085 0.25381464 0.016499637
0.14266565 0.5057396 0.45789596 -0.0835417 -0.0771826 0.085065655 0.36403975 0.26918572
-0.057732932 0.06861829 0.01677848 0.2050108 -0.06551853 -0.08554016 -0.04878698 0.3426714
0.40500644 0.43567416 -0.043159477 -0.07048543 -0.005719875 0.5234182 0.35140112 0.4288462
0.45562065 0.4394373 -0.041808523 0.017124275 0.3970842 0.026367374 -0.062993735 0.061714996
0.4828446 0.46212232 0.57001436 -0.054288376 0.529215 0.015660135 0.32425016 0.30684662
0.36858374 0.21751378 0.26933813 0.07262739 -0.041646153 0.25422537 -0.037241273 -0.066234306
-0.043063406 0.4982719 0.37223122 0.5085299 0.15195672 0.34721714 0.030210987 0.3935095
0.06995023 0.35659415 0.3771617 0.67221487 -0.06260143 -0.08047481 0.24164079 -0.078526355
-0.0037607737 0.052833624 0.275644 0.38482937 0.34813327 0.17042542 0.2948989 0.063386776
0.08677605 0.018996375 0.31293902 0.31679106 -0.02040958 0.06783922 0.019330515 0.4255356
0.23511687 -0.032413654 0.0725971 -0.08069188 0.30016413 0.19041753 -0.043097746 -0.0607816
-0.0746855 0.3998666 0.23220764 0.52585834 0.7923909 0.38557884 0.06490488 0.07637103
-0.012633928 0.454888 -0.04166509 0.03785124 0.35722673 0.2914558 0.40594852 0.052305534
0.50631404 0.065969035 0.3144198 0.27551156 1.2775812 0.48062876 0.2988116 -0.011606631
-0.026520187 -0.033930805 0.39299342 0.054073256 -0.0724477 0.39831886 0.22701919 0.39651823
0.35250616 0.28987688 -0.004658228 0.24755812 -0.05855904 0.61927444 0.37566507 0.50232375
0.04963059 -0.022858512 -0.06028586 0.3093592 0.07975157 -0.0045259604 0.16376309 0.4512186
0.4329539 0.42556778 0.44377667 -0.03958665 -0.060320538 0.061034303 0.3900843 0.58172166
0.5135678 0.06788347 -0.08792177 0.0036276213 0.4111647 -0.07259632 -0.04199457 0.018850198
0.42775658 0.038029928 0.03307991 -0.048052106 -0.030261701 0.33857542 0.3662289 0.4086439
0.05689663 0.93108064 0.013722318 0.024871329 0.056565683 0.5826885 0.06995504 -0.028332617
0.5059322 0.36383274 0.6123388 0.005901275 0.63621193 0.042980816 0.5006031 0.5397485
0.020223333 0.011139254 0.22140168 0.0009418029 -0.011667891 0.06828603 0.26715264 -0.016969511
-0.050775286 0.33975965 0.48940742 0.5412203 0.43447682 0.255839 -0.029563896 0.45748377
0.06481043 -0.015801812 0.019870447 0.329008 -0.017823428 0.011833318 0.08562871 0.57676524
-0.015980199 -0.04337136 0.2237582 0.4080885 0.46942326 0.04657483 0.5882764 0.02330042
